onnxmodel.onnx (onnx, 920413 bytes, 10 tensors)

W f4 [16, 1, 3, 3]
0	0xbdcb78a9	-0.099351235
1	0xbe3a692a	-0.1820418
2	0x3cf36ee5	0.029715965
3	0xbe2f6ff2	-0.17132547
4	0x3d225382	0.03963042
5	0xbd8df65e	-0.069317564
6	0xbe440b9d	-0.19145055
7	0xbdc163cb	-0.09442862
8	0xbe062142	-0.13098624
9	0x3e0095ea	0.12557188
10	0x3e248bad	0.16068907
11	0x3e984863	0.29742727
12	0xbd0b5d46	-0.0340245
13	0xbe3cb8ec	-0.18429917
14	0xbe2c5aff	-0.16831587
15	0xbe69cce1	-0.22832061
16	0x3bced1ce	0.0063116318
17	0xbe33bdf0	-0.17552924
18	0x3dbce7ef	0.09223925
19	0x3e81f501	0.25382236
20	0x3ccb3784	0.024806745
21	0xbdf06401	-0.11737824
22	0x3e57d9e9	0.2107922
23	0x3d9fcef5	0.07803146
24	0xbdb354f6	-0.087564394
25	0x3d417b46	0.047236703
26	0xbddd8206	-0.10815816
27	0xbded889f	-0.11598324
28	0x3e1ff77f	0.15621756
29	0x3e95e179	0.29273584
30	0x3e45a90d	0.19302769
31	0x3e883e10	0.2660985
32	0xbd7118f5	-0.05886169
33	0x3c5648cd	0.0130788805
34	0x3caf62ea	0.02140947
35	0xbc3bfd62	-0.011473985
36	0x3dbb7dbb	0.091548406
37	0x3e8ec97d	0.27888098
38	0x3e6344a4	0.22194153
39	0x3ccacbf6	0.02475546
40	0xbd98d8b5	-0.074632086
41	0xbc90e88b	-0.01768901
42	0xbd24dcb1	-0.04024953
43	0xbe8162f7	-0.25270817
44	0xbdeb7a72	-0.11497964
45	0x3d55484e	0.05207091
46	0xbe1575fb	-0.14595787
47	0x3a93286c	0.0011227257
48	0xbe4b5958	-0.198583
49	0x3e3681cb	0.1782295
50	0x3df84782	0.12123014
51	0xbc010db4	-0.007876802
52	0x3d9ce580	0.07660961
53	0x3e30b75f	0.1725745
54	0x3cbf2150	0.023331314
55	0x3dba6786	0.09101777
56	0xbc893d04	-0.016752727
57	0x3e5ee429	0.21766724
58	0x3e7b9ac3	0.24570756
59	0x3dd5ff18	0.10449046
60	0xbdcf76a1	-0.101300485
61	0x3e69f39c	0.22846836
62	0x3e8213d4	0.25405753
63	0xbe67e8bc	-0.22647375
64	0xbe2fb6b3	-0.17159538
65	0xbddf39c3	-0.10899689
66	0x3dda74b2	0.10666789
67	0xbd7bc061	-0.061462764
68	0xbd0a7f1e	-0.033812635
69	0x3e1c820e	0.15283987
70	0x3e72be08	0.23705304
71	0x3e3d1c48	0.1846782
72	0x3e2243ce	0.15846178
73	0xbd85de14	-0.06536499
74	0xbdf3b786	-0.11900239
75	0x3dfeff48	0.12451035
76	0xbd8c5f87	-0.06854158
77	0x3e36ac5b	0.17839186
78	0x3e1344f6	0.14381775
79	0x3d70691c	0.05869399
80	0x3e0fcb21	0.14042331
81	0x3e1f7c67	0.155748
82	0x3d4e2e59	0.05033717
83	0x3e49ba30	0.19699931
84	0xbda9e8fb	-0.082963906
85	0x3db5e7a9	0.08882076
86	0x3dba177b	0.0908651
87	0xbdcf26e0	-0.10114837
88	0xbe6f7f12	-0.23388317
89	0xbe86d1b2	-0.2633186
90	0xbcb059db	-0.021527221
91	0xbd634826	-0.055488728
92	0xbea4a484	-0.32156765
93	0x3e46d491	0.19417025
94	0x3d91c58f	0.071177594
95	0xbdae3de0	-0.085078955
96	0x3e697089	0.22796835
97	0x3e8c4a32	0.27400357
98	0x3c219730	0.009862706
99	0x3e896ee9	0.2684243
100	0x3e94c0a2	0.29053217
101	0x3e89a325	0.26882282
102	0xbd149829	-0.036277924
103	0x3e94772a	0.28997165
104	0x3e862d51	0.2620645
105	0x3c3d7e2c	0.011565726
106	0xbe4f7143	-0.2025805
107	0xbe345790	-0.17611527
108	0x3e6bea5b	0.23038618
109	0xbd59919b	-0.053117376
110	0xbe0364a8	-0.12831366
111	0x3e5d53cf	0.21614002
112	0xbe17abb8	-0.14811599
113	0xbe7a3397	-0.24433742
114	0x3e363469	0.1779343
115	0x3e6e16a3	0.23250823
116	0x3de96b4a	0.11397417
117	0xbddc3248	-0.10751778
118	0xbdc63c7b	-0.096795045
119	0x3cd31c8a	0.025770444
120	0xbdf4f507	-0.11960798
121	0x3da1a368	0.078924954
122	0x3e6942fc	0.22779459
123	0x3e787358	0.2426275
124	0x3e8e78d5	0.27826563
125	0x3de39585	0.11112503
126	0x3e1cb902	0.1530495
127	0xbd0e0f50	-0.034682572
128	0xbe2e2f36	-0.17010197
129	0x3d5da967	0.054116633
130	0x3e69eafe	0.22843549
131	0xbe47f238	-0.19525993
132	0xbdb19a67	-0.08672028
133	0x3e4edb93	0.20200948
134	0x3e58580b	0.21127336
135	0x3e00073a	0.12502757
136	0x3e6398ab	0.22226207
137	0x3e80c68b	0.25151476
138	0x3db164c0	0.08661795
139	0x3dbbe41a	0.09174366
140	0x3cf2653f	0.029589294
141	0x3e353c09	0.17698683
142	0x3d1a3e07	0.03765681
143	0xbddd0d29	-0.10793526

B f4 [16]
0	0xbbf5273a	-0.007481483
1	0x3ce52b72	0.027974818
2	0x3d40c9a8	0.047067314
3	0x36bf7300	5.7056313e-06
4	0x3d4e5ea1	0.050383214
5	0x3d27e051	0.04098541
6	0xb8eef020	-0.00011393451
7	0x3d27d3ac	0.04097335
8	0xb948de38	-0.00019156269
9	0x3ca736f6	0.02041195
10	0x3cb5ca20	0.022191107
11	0x3ca0ef62	0.019645397
12	0xbc46f611	-0.012143628
13	0x3cbdf072	0.023185942
14	0xbc99cacf	-0.018773464
15	0xb9cfb6a4	-0.00039618195

W1 f4 [32, 16, 3, 3]
0	0x3de98d40	0.114038944
1	0x3d2bbf48	0.041930467
2	0xbd61e571	-0.055150453
3	0xbddb0952	-0.10695137
4	0x3dedfaa7	0.11620074
5	0x3db2acdb	0.08724376
6	0xbdd40f0d	-0.10354433
7	0xbda66c29	-0.08126099
8	0xbc6ffbfd	-0.014647481
9	0xbcd497d0	-0.025951296
10	0xbc2f7a02	-0.010710241
11	0xbd302bf4	-0.043010667
12	0x3ca9a34b	0.020707747
13	0xbdb2ef39	-0.08737034
14	0x3b167213	0.0022956177
15	0xbe2e2775	-0.17007239
16	0x3cfc873a	0.0308262
17	0xbca3e997	-0.020008845
18	0xbd8f17ed	-0.06986985
19	0x3ccf9a8c	0.025342248
20	0x3d9d8ab1	0.07692469
21	0xbc8df1d8	-0.017327234
22	0x3dc545fb	0.09632488
23	0x3d9aea70	0.07564247
24	0xbdf0e41b	-0.11762258
25	0x3c73e281	0.014885546
26	0xbd32594f	-0.043542203
27	0xbdc41951	-0.09575141
28	0x3b95a5c0	0.004566878
29	0x3bc1897a	0.005906281
30	0x3bf71e7e	0.0075414767
31	0x3ab954c8	0.0014139647
32	0x3ddedb26	0.10881643
33	0x3e0804aa	0.13283029
34	0x3e0ebdd9	0.13939609
35	0xbdbb2dc2	-0.09139587
36	0xbe0332a8	-0.12812293
37	0xbe246938	-0.16055763
38	0x3ca17576	0.01970933
39	0xbe16f40c	-0.14741534
40	0xbd98453b	-0.0743508
41	0x3cf8973b	0.03034555
42	0xbc987b2b	-0.018613419
43	0x3d3f0303	0.04663373
44	0xbd2837e0	-0.04106891
45	0x3e05de35	0.13073047
46	0x3dc0815d	0.09399674
47	0xbc969f66	-0.018386554
48	0xbc1f4084	-0.009719972
49	0x3c57ff30	0.0131834
50	0xbdbc11c8	-0.09183079
51	0xbd19b24b	-0.03752355
52	0x3dadf456	0.08493869
53	0xbe07b7bc	-0.13253683
54	0x3d9acad2	0.07558216
55	0x3dd182d1	0.102300294
56	0xbbbb25b7	-0.005711283
57	0xbdc2e67f	-0.0951662
58	0x3d86e448	0.0658651
59	0x3d46b05d	0.048508037
60	0x3d08030e	0.03320604
61	0x3df1c9b4	0.1180605
62	0x3d90be38	0.07067531
63	0xbcb5940f	-0.022165326
64	0xbd6e0bf8	-0.058116883
65	0xbdbf4e66	-0.09341125
66	0xbc86713f	-0.016411422
67	0x3cafada5	0.021445105
68	0x3d4ec280	0.05047846
69	0x3d230a75	0.039804894
70	0x3c61c63c	0.013780173
71	0xbdbc7f8b	-0.092040144
72	0xbb92dd2b	-0.0044819317
73	0x3dd77f99	0.10522384
74	0x3dcc89f5	0.09987251
75	0x3df7e9dd	0.12105153
76	0x3d9e63a6	0.0773385
77	0xbd90a618	-0.0706293
78	0x3d26fdcd	0.040769387
79	0xbdd05689	-0.10172755
80	0x3e051252	0.1299527
81	0x3d3292bb	0.043596964
82	0x3d583833	0.05278797
83	0x3d3d20cb	0.046173852
84	0x3d0350c5	0.03205945
85	0xbcbb7954	-0.022885002
86	0xbdc38d94	-0.09548488
87	0xbdd432bc	-0.10361239
88	0xbd87f13e	-0.0663781
89	0xbe134ee0	-0.14385557
90	0xbe02aabf	-0.12760447
91	0x3ce4e676	0.027941924
92	0x3cd8e2df	0.026475368
93	0xbded847c	-0.11597535
94	0xbca11a02	-0.019665722
95	0x3dc100e5	0.09423999
96	0xbdb10cee	-0.08645044
97	0x3db5d789	0.08879001
98	0xbda98312	-0.08276953
99	0xbdfbda6a	-0.122975186
100	0xbd18ecb9	-0.03733513
101	0x3dc88836	0.09791605
102	0x3d7f461f	0.062322732
103	0x3cb60eff	0.022223948
104	0xbc4384d6	-0.011933526
105	0x3d074163	0.033021342
106	0x3d301590	0.042989314
107	0xbca78933	-0.020451164
108	0xbd6c3c47	-0.057674672
109	0xbdf0667f	-0.117382996
110	0xbce25f97	-0.027633471
111	0xbc95ba58	-0.018277332
112	0x3bd9e962	0.006650136
113	0x3cd24ea1	0.025672259
114	0xbe074eb1	-0.13213612
115	0x3d5901ef	0.05298036
116	0xba1d76aa	-0.0006006757
117	0x3c6b605c	0.014366236
118	0xbd246f4c	-0.040145203
119	0xbd34eb9e	-0.044170015
120	0x3d2c41f8	0.0420551
121	0xbb054781	-0.002033681
122	0x3d601c77	0.054714646
123	0x3d857973	0.06517305
124	0x3dfef5f2	0.12449254
125	0x3cafe736	0.021472555
126	0x3b076ca8	0.002066413
127	0x3dabc175	0.083865084
128	0x3de299e4	0.110645086
129	0x3d9f45f2	0.07777013
130	0x3d09b2d7	0.03361782
131	0x3d77c3d8	0.060489506
132	0x3d3e59b4	0.046472266
133	0x3d19f0bf	0.03758311
134	0x3e2393cd	0.1597435
135	0x3d07b5d9	0.033132408
136	0xbd846f67	-0.06466561
137	0xbdae0287	-0.08496576
138	0xbdc057a5	-0.09391717
139	0x3dae96af	0.08524834
140	0x3e00abf2	0.12565592
141	0xbd8730c8	-0.06601101
142	0xbd86f1f6	-0.06589119
143	0x3de018d0	0.109422326
144	0x3de3efd1	0.11129726
145	0x3b0b3dc4	0.0021246532
146	0xbdb37c63	-0.08763959
147	0xbcad230e	-0.02113488
148	0xbdd1cb5e	-0.10243867
149	0xbcac619a	-0.021042634
150	0xbd016fad	-0.031600643
151	0xbb180b8b	-0.002320024
152	0x3c2ae502	0.010430576
153	0xbd815120	-0.063143015
154	0xbcd5863a	-0.02606498
155	0x3d7d419a	0.06183014
156	0xbdd17c5b	-0.10228797
157	0xbd3e71ba	-0.046495177
158	0xbd655195	-0.055986006
159	0x3c0e2499	0.008675718
160	0x3dc87a76	0.097889826
161	0x3e195436	0.1497353
162	0xbd3fc5a0	-0.04681933
163	0xbddfe485	-0.109322585
164	0xbd708ced	-0.058728147
165	0xbd0029ee	-0.031289987
166	0xbda1cf59	-0.079008766
167	0x3d816378	0.063178
168	0xbd1520be	-0.03640818
169	0x3d75e466	0.06003227
170	0x3dd04c2e	0.1017078
171	0x3c808f82	0.01569343
172	0x3d05618f	0.032563742
173	0xbd08c24b	-0.033388417
174	0x3d80d5fb	0.062908135
175	0xbd83f1b9	-0.06442589
176	0x3c0763f0	0.008263573
177	0x3d24dc76	0.04024931
178	0x3d3891fb	0.045061093
179	0x3e04af98	0.12957609
180	0xbc8a98e9	-0.016918616
181	0xbc28460a	-0.010270605
182	0xbdc07312	-0.09396948
183	0x3cb6adc3	0.022299653
184	0xbc934157	-0.017975492
185	0x3d24233d	0.04007267
186	0x3df2b134	0.11850205
187	0x3d1834c0	0.03715968
188	0x3e20760e	0.15670034
189	0xbdfa9058	-0.12234563
190	0xbb1ec6a3	-0.0024227283
191	0x3d66c660	0.05634153
192	0x3db21989	0.08696277
193	0x3d554de4	0.052076235
194	0x3df722ad	0.12067161
195	0xbd34752c	-0.044057056
196	0x3c4266de	0.011865346
197	0x3da31527	0.07963019
198	0xbd9fc065	-0.07800368
199	0x3dc0973c	0.09403846
200	0x3d88fffd	0.06689451
201	0x3de0f1fd	0.109836556
202	0x3dff809e	0.12475704
203	0x3e0c57a2	0.13705304
204	0x3cd77cca	0.026304621
205	0xbd7d9c17	-0.061916437
206	0xbda852a3	-0.08218887
207	0xbe0fd585	-0.14046295
208	0xbdfe1666	-0.12406616
209	0xbca0f7ad	-0.019649351
210	0xbb684b10	-0.0035445131
211	0xbe0e50e5	-0.13898046
212	0xbe015934	-0.12631685
213	0x3cb0006c	0.021484576
214	0xbd7fc3a7	-0.062442448
215	0xbd07b0e9	-0.0331277
216	0x3dd256a1	0.102704294
217	0x3da5fb58	0.08104581
218	0x3dcfa880	0.10139561
219	0xbd32d6ed	-0.043662
220	0x3c9c3f22	0.019073073
221	0x3cbd0b94	0.02307681
222	0xbcf2416c	-0.029572211
223	0x3c18c725	0.0093248235
224	0xbd95398f	-0.07286369
225	0xbc351e7c	-0.011054631
226	0x3d84f831	0.06492651
227	0x3dae5992	0.08513178
228	0x3d2c3763	0.04204501
229	0xbd816f3d	-0.06320045
230	0x3d70ac8d	0.058758307
231	0x3e1ad8e5	0.15121801
232	0x3c57a0ea	0.0131609235
233	0xbc399a9c	-0.011328366
234	0xbd9a84fb	-0.07544895
235	0x3df6c595	0.120494045
236	0x3d71f4b4	0.059071258
237	0xbd62e74d	-0.055396367
238	0x3db13239	0.08652157
239	0x3d57f917	0.052727785
240	0x3d042d98	0.032270044
241	0xbd3678e0	-0.04454887
242	0xba5fd14a	-0.00085379614
243	0x3d5db5c1	0.054128412
244	0x3d621960	0.05519998
245	0xbd25d2fb	-0.04048441
246	0x3d15d608	0.03658107
247	0x3d1141e8	0.035463244
248	0xbd9f115b	-0.07766982
249	0x3c7d1387	0.01544655
250	0x3b597535	0.0033181433
251	0x3e06056e	0.13088009
252	0xbbab19d1	-0.0052215834
253	0x3daae948	0.08345276
254	0x3dddd148	0.10830933
255	0xbb250db7	-0.0025185177

B1 f4 [32]
0	0xbcd18f7c	-0.025581114
1	0xbc21e420	-0.009881049
2	0xbc95a4f3	-0.01826713
3	0x3bba501e	0.0056858202
4	0x3c82943a	0.01593982
5	0xbce31324	-0.027719088
6	0xbca9d68f	-0.020732192
7	0x3d3ff3bc	0.046863303
8	0x3bb5985d	0.0055418448
9	0x3d0cfbcc	0.03441982
10	0x3a851044	0.0010151942
11	0x3cbc2f85	0.022971878
12	0xbc943e39	-0.018096076
13	0x3b856ba5	0.00407167
14	0xbca4f7ca	-0.020137686
15	0x3c5a7b7e	0.013335107
16	0xbcce52a7	-0.025185896
17	0xbc822ad1	-0.015889557
18	0xbca0bf10	-0.019622356
19	0x3d019a5c	0.03164135
20	0xbcd3bb7a	-0.025846232
21	0x3d024bdb	0.031810623
22	0x3bdcd7f8	0.0067396127
23	0xbd1fe702	-0.039038666
24	0xbc469d6c	-0.012122493
25	0x3cc22bae	0.023702469
26	0x3d602ae3	0.0547284
27	0xbcde287c	-0.027118914
28	0x3a3917f0	0.0007060757
29	0xbd0a9c20	-0.0338403
30	0xbc97a4b3	-0.018511152
31	0xbd125d7d	-0.03573369

W2 f4 [64, 32, 3, 3]
0	0xbc40905d	-0.011753169
1	0x3c0064e3	0.007836553
2	0x3d105fd5	0.035247643
3	0x3d3bf8a2	0.04589141
4	0x3d5e4bc6	0.054271482
5	0xbd20a153	-0.03921635
6	0xbba413ff	-0.0050072665
7	0xbdab6ec6	-0.08370738
8	0xbcdfacf1	-0.027304145
9	0x3bd189eb	0.006394615
10	0x3cbace56	0.022803467
11	0xbcd6fe2a	-0.026244242
12	0xbd1bd339	-0.038043234
13	0x3d277ba3	0.040889394
14	0x3c95f99e	0.018307503
15	0x3c46e0e3	0.012138578
16	0x3d9ab6d6	0.075544044
17	0x3cd53353	0.02602545
18	0xbd87d1a3	-0.06631782
19	0xbd1e2d08	-0.038617164
20	0xbe0258d6	-0.127292
21	0x3c2f1b13	0.010687607
22	0xbd7c0025	-0.061523575
23	0xbd713f6d	-0.05889838
24	0x3ad58058	0.001628886
25	0x3d2a45b7	0.04157039
26	0x3d0ac6ac	0.033880875
27	0x3c4574cb	0.012051771
28	0x3c86f86e	0.016475882
29	0xbd495f05	-0.049162883
30	0x3af55488	0.0018717209
31	0x396b1270	0.00022418215
32	0xbd833caa	-0.06408055
33	0xbd8ab781	-0.06773282
34	0xbbe852b7	-0.0070899385
35	0xbdafde0b	-0.08587273
36	0xbd59a91e	-0.0531398
37	0x3c4b0f8f	0.012393846
38	0x3d5186e7	0.051154044
39	0xbd81828c	-0.06323728
40	0x3cf27e73	0.029601311
41	0x3c175237	0.00923591
42	0x3d7200eb	0.059082907
43	0xbd8456d1	-0.064618714
44	0xbdaa414b	-0.08313235
45	0x3d544126	0.051819943
46	0xbd3e5d68	-0.046475798
47	0xbdb9f5dc	-0.09080097
48	0x3cc4cc14	0.024023093
49	0x3cb3f3ed	0.021966899
50	0xbd0927fc	-0.033485398
51	0x3dab21f5	0.08356086
52	0x3e0b54b2	0.13606527
53	0x3d91ae64	0.071133405
54	0xbd51c674	-0.05121465
55	0x3b883deb	0.004157772
56	0xbdaea349	-0.08527238
57	0x3d71ed15	0.05906399
58	0x3d519f58	0.051177353
59	0x3da8139e	0.08206867
60	0xbdbeefb2	-0.09323062
61	0xbd6fa98e	-0.05851131
62	0x3db3e89e	0.087846026
63	0xbd955cbc	-0.07293078
64	0xbcf69ba4	-0.030103512
65	0xbd11a9f1	-0.03556246
66	0xbdb0dd11	-0.08635915
67	0xbde1f854	-0.11033693
68	0xbcb6377b	-0.022243252
69	0x3dc941f5	0.098270334
70	0x3bacd284	0.005274119
71	0x3c21f651	0.009885387
72	0x38d65f40	0.00010222057
73	0x3dafcbbe	0.085837826
74	0x3ced0217	0.02893166
75	0x3b33fba0	0.0027463213
76	0x3c2af980	0.010435462
77	0xbd0ddad5	-0.034632523
78	0xbda69da6	-0.08135538
79	0xbdfe1f01	-0.12408257
80	0xbde8976c	-0.113570064
81	0x3a59f526	0.0008314423
82	0xbd37718b	-0.044786017
83	0x3cc74079	0.024322735
84	0xbd557dd1	-0.05212194
85	0xbd1a9e9d	-0.03774892
86	0xbd87c134	-0.066286474
87	0xbcfb3bbe	-0.030668136
88	0xbd1beb16	-0.038065992
89	0xbd877a47	-0.066151194
90	0xbd115ab6	-0.0354869
91	0xbdbf9800	-0.093551636
92	0xbc54b648	-0.012982912
93	0x3db836c5	0.089948215
94	0xbd3b7637	-0.045767035
95	0xbbfeb2ba	-0.0077727707
96	0x3d5fcb2c	0.05463712
97	0x3e02b6d7	0.1276506
98	0x3d5878ff	0.052849766
99	0x3ce8e7a2	0.028430764
100	0x3d61626b	0.0550255
101	0x3d761df1	0.060087148
102	0x3c0f2d4c	0.008738827
103	0xbd4a227f	-0.049349304
104	0xbb28dc5e	-0.0025766115
105	0x3b930d28	0.0044876523
106	0xbdc454e6	-0.095865056
107	0xbd0e4575	-0.034734208
108	0x3da0c4eb	0.07850059
109	0x3d20c546	0.039250635
110	0xbdbc2154	-0.09186044
111	0x3cc21195	0.023690024
112	0x3d7a271e	0.06107246
113	0x3d13b3fa	0.03606031
114	0xbdc5bd3a	-0.09655233
115	0x39221f6c	0.0001546123
116	0x3bbaea6a	0.005704214
117	0xbce46061	-0.027877988
118	0x3d5ca400	0.05386734
119	0xbd35c97c	-0.044381604
120	0xbc021594	-0.007939715
121	0x3d0e0902	0.03467656
122	0xbd4a77f6	-0.04943081
123	0xbdc5f5af	-0.09666001
124	0xbd502e45	-0.050825376
125	0xbce075fe	-0.027400013
126	0x3da6a03b	0.0813603
127	0x3cbd799d	0.023129279
128	0xbc80d6bf	-0.015727399
129	0x3ce29ccd	0.027662659
130	0xbc89e228	-0.016831473
131	0x3d8c644e	0.06855069
132	0xbd87c08a	-0.06628521
133	0xbdd34595	-0.10316006
134	0xbd6b5cd7	-0.057461586
135	0xbdd2cf51	-0.10293449
136	0xbd944498	-0.07239646
137	0xbdac36b6	-0.08408873
138	0x3d73e1f3	0.059541654
139	0xbd73d73d	-0.05953144
140	0xbdf23530	-0.11826551
141	0x3dc30116	0.095216915
142	0xbd53a179	-0.051667664
143	0xbd0c5b81	-0.034266952
144	0xbd326850	-0.04355651
145	0x3cfb634b	0.030686995
146	0xbd65a9c9	-0.056070123
147	0x3cd1ddae	0.0256184
148	0x3d0f9498	0.03505382
149	0x3d91e53f	0.07123803
150	0x3cec8d5d	0.028876001
151	0xbd95580a	-0.07292183
152	0xbd3dbc7f	-0.046322342
153	0xbcfe47c1	-0.031040074
154	0xbd5bff01	-0.053709988
155	0x3cbe6fd0	0.023246676
156	0x3d909443	0.07059529
157	0x3d8663a4	0.06561974
158	0x3ca71fed	0.020400966
159	0xbdadca59	-0.084858604
160	0xbaa8eef2	-0.0012888594
161	0x3d99f160	0.07516742
162	0xbdafbf3b	-0.08581396
163	0xbb3e94e6	-0.002908045
164	0xbdaf6402	-0.08563997
165	0x3d59a00a	0.05313114
166	0x3d76f898	0.06029567
167	0xb9677448	-0.00022073195
168	0xbbc2b8e1	-0.0059424494
169	0x3caa6910	0.02080205
170	0x3d5033de	0.050830714
171	0x3c55e7cf	0.013055756
172	0xbd5797ec	-0.05263512
173	0x3c404086	0.011734134
174	0xbd8ada01	-0.06779862
175	0x3ccbd5dc	0.02488225
176	0x3c63748d	0.013882768
177	0x3d5700f0	0.05249113
178	0xbd57b896	-0.05266627
179	0xba8b763e	-0.0010640097
180	0x3d81b9f0	0.06334293
181	0x3b32dd4c	0.0027292548
182	0xbd2e1709	-0.042502437
183	0xbd0832dd	-0.033251632
184	0xbca3e010	-0.020004302
185	0x39ff6770	0.00048714457
186	0xbd60fbd6	-0.05492767
187	0xbe003f96	-0.12524256
188	0x3d609074	0.05482526
189	0x3d6661cd	0.056245614
190	0xbd7b92d5	-0.061419327
191	0xbbf61484	-0.00750977
192	0x3cf26bb3	0.02959237
193	0xbd982ee8	-0.07430822
194	0x3a646d34	0.00087137823
195	0xbdb379ca	-0.08763464
196	0xbb9c96b4	-0.0047787074
197	0xbdcfce35	-0.10146753
198	0x3d9fa0d0	0.077943444
199	0xbd0c050a	-0.034184493
200	0xbd2de3d6	-0.04245361
201	0xbcb06045	-0.02153028
202	0x3d1b1168	0.037858397
203	0x3e03bed3	0.12865762
204	0xbdaaf580	-0.08347607
205	0xbdc0b265	-0.09409026
206	0x3c409551	0.01175435
207	0x3d6662f2	0.056246705
208	0x3c00627a	0.007835979
209	0xbcff01aa	-0.031128723
210	0xbc25c915	-0.0101187425
211	0x3d3b581c	0.045738325
212	0x3d864025	0.06555203
213	0xbd7ac951	-0.061227147
214	0xbdec56ca	-0.11539991
215	0xbdb63901	-0.088975914
216	0xbd20921e	-0.03920185
217	0x3bd96085	0.0066338205
218	0x3c8f395c	0.017483406
219	0x3dc48b41	0.09596873
220	0x3dd13689	0.1021548
221	0x3deb730a	0.11496551
222	0xbcd79d99	-0.026320266
223	0xba08c30f	-0.0005217054
224	0x3da5c18f	0.08093559
225	0xbba300c2	-0.0049744556
226	0x3d841191	0.06448663
227	0x3dcfcd7f	0.10146617
228	0xbcc4e6be	-0.024035808
229	0x3c7b8427	0.015351332
230	0x3daf33e8	0.08554822
231	0xbdd42e2a	-0.103603676
232	0xbdf7c195	-0.1209747
233	0xbdec4fa9	-0.115386315
234	0x3d266ffd	0.040634144
235	0xbd051bc8	-0.032497197
236	0xbbfd2f28	-0.0077265687
237	0x3d78009a	0.06054745
238	0xbd34c93b	-0.04413722
239	0x3d1254f5	0.035725553
240	0xbba43b30	-0.0050119385
241	0xbd371a13	-0.0447026
242	0x3d1fb4c5	0.038990755
243	0x3d905148	0.07046753
244	0x3c7141dd	0.014725176
245	0x3dc6ec6c	0.09713063
246	0xbd159bc9	-0.03652552
247	0x3d276687	0.040869262
248	0xbd5dd553	-0.05415852
249	0xbd30340c	-0.043018386
250	0xbdf135a4	-0.11777809
251	0xbd640fa6	-0.055678986
252	0xbd0508a4	-0.032478943
253	0xbd12682d	-0.03574388
254	0x3d201515	0.039082605
255	0x3d949266	0.07254486

B2 f4 [64]
0	0xbd2f6741	-0.04282308
1	0xbc211cc6	-0.00983352
2	0xbc9262c2	-0.017869357
3	0xbc8b2ccd	-0.016989136
4	0xbbadbc31	-0.005301975
5	0xbc6f3849	-0.014600822
6	0xbc56cf87	-0.013111002
7	0x3c2ff8df	0.010740488
8	0xbc75e1b7	-0.015007428
9	0xbc97adfa	-0.018515576
10	0xbc3dd055	-0.011585315
11	0xbc973a95	-0.018460551
12	0xbc147ad8	-0.009062491
13	0xbb963087	-0.0045834216
14	0xbbfe6ffc	-0.0077648144
15	0xbc88064e	-0.016604569
16	0xbccb0645	-0.024783263
17	0xbb832cb0	-0.00400313
18	0xbd19802a	-0.037475742
19	0x38ba99e8	8.8978384e-05
20	0xbca59081	-0.020210506
21	0xbcc075ba	-0.023493636
22	0xbc593df5	-0.013259401
23	0xbcdd5e88	-0.027022615
24	0xbcfaf151	-0.030632647
25	0xbcfd4608	-0.030917183
26	0xbc9af1b4	-0.018914081
27	0xbcb9300c	-0.022605918
28	0xbcbb3d1a	-0.022856284
29	0xbcbbf9d5	-0.022946278
30	0xbc9338c8	-0.017971411
31	0xbca47ecf	-0.020079998
32	0x3c497692	0.012296336
33	0xbbfe4d33	-0.0077606677
34	0xbc261667	-0.010137177
35	0xbc9dcc7a	-0.019262541
36	0xbc24a4c6	-0.010049051
37	0xbc840cc4	-0.016119368
38	0xbb550aa5	-0.0032507565
39	0x3b515c70	0.0031945966
40	0xbc7be150	-0.015373543
41	0xbc951bce	-0.018201735
42	0xbb642099	-0.0034809469
43	0xbc0d83e0	-0.0086373985
44	0xbaa20702	-0.0012361708
45	0xbcdf21dc	-0.027237825
46	0xbcd152b9	-0.02555214
47	0x3bc26fb1	0.005933725
48	0xbc9935bb	-0.018702378
49	0xbc0d83ea	-0.008637408
50	0xbb884186	-0.0041582016
51	0xbbb05e66	-0.005382347
52	0xbc55d84b	-0.013052057
53	0xbcab7288	-0.020928636
54	0x3b6ed796	0.0036444417
55	0xbd20ddf6	-0.03927418
56	0xbcaead54	-0.021322884
57	0xbc91ceb9	-0.017798768
58	0xba24e3fc	-0.0006290076
59	0xb9badbfa	-0.0003564058
60	0xbcab8d9f	-0.020941554
61	0xbc0006ab	-0.00781409
62	0xbb1d29aa	-0.0023981133
63	0xbcba9ccf	-0.02277985

W3 f4 [1600, 128]
0	0xbcdd6f17	-0.02703051
1	0x3d381329	0.044940148
2	0xbc24a2fa	-0.010048622
3	0x3d55ba67	0.05217972
4	0xbcb1987b	-0.021679154
5	0xbd41632e	-0.047213726
6	0x3c9d403f	0.019195674
7	0xbcdbf2ec	-0.026849233
8	0x3d1b516e	0.037919454
9	0xbcae4f2d	-0.021277988
10	0x3d871168	0.06595117
11	0xbdb2ab80	-0.08724117
12	0xbca2032d	-0.019776905
13	0xbd1a285b	-0.037636142
14	0xbcfcfc3d	-0.030881995
15	0x3ccbca41	0.024876716
16	0x3d697468	0.05699578
17	0x3d08ec74	0.033428624
18	0x3d165bc9	0.036708627
19	0xbd02551e	-0.031819455
20	0xbcc2459f	-0.023714839
21	0xbd40a417	-0.04703149
22	0xbd94dfd3	-0.072692536
23	0xbcf4febf	-0.029906629
24	0xbd086ec5	-0.033308763
25	0x3cd9cba0	0.026586354
26	0x3d37c214	0.04486282
27	0xbbb91cb3	-0.005649173
28	0x3cf84d42	0.030310277
29	0x3d0f355c	0.034962997
30	0x3b1746f9	0.0023083074
31	0xbcbe8949	-0.023258822
32	0x3d27a589	0.04092935
33	0xbbd797a3	-0.006579356
34	0x3cdebd02	0.027189735
35	0xbabfae71	-0.0014624131
36	0x3d6bd0ae	0.05757206
37	0xbd640952	-0.05567295
38	0x3c2be8a2	0.010492476
39	0xbd120a9e	-0.035654657
40	0xba40ffae	-0.0007362318
41	0x3d3be99b	0.04587708
42	0x3bb75c21	0.0055956994
43	0xbd3031d9	-0.04301629
44	0xbce49c36	-0.027906518
45	0x3cdd14ff	0.02698755
46	0xbb472e43	-0.0030392564
47	0xbd0971de	-0.033555858
48	0x3c96ec0f	0.018423108
49	0x3c1d3889	0.009595999
50	0xbcab44d0	-0.020906836
51	0xbd71481f	-0.05890667
52	0xbcc66e34	-0.02422247
53	0xbcc70330	-0.024293512
54	0x3d4d0364	0.05005206
55	0xbd8720e8	-0.06598073
56	0x3cb7f7c7	0.022457017
57	0xbd563d2a	-0.052304424
58	0xbd003f55	-0.031310398
59	0x3d101818	0.035179228
60	0xbd7fe027	-0.062469628
61	0x3d7c7052	0.061630554
62	0xbd26bc63	-0.040707003
63	0xbd6723ba	-0.056430556
64	0xbbbfc453	-0.005852261
65	0xbce7f2c1	-0.028313996
66	0xbb8fd2e7	-0.004389155
67	0xbd462dc3	-0.048383486
68	0xbc9f5ccd	-0.01945343
69	0x3ca424d3	0.02003709
70	0x3c7c9db4	0.015418459
71	0xbc7dd04c	-0.015491556
72	0xbc995ad1	-0.018720062
73	0x3d687f05	0.05676176
74	0x3d57fa1a	0.05272875
75	0xbc6f146b	-0.01459227
76	0x3ce9c394	0.028535642
77	0x3b043021	0.0020170289
78	0xbb1a8a5f	-0.002358101
79	0xbd939bc2	-0.07207443
80	0xbca03efa	-0.01956128
81	0xbd4f4488	-0.050602466
82	0x3cab1fee	0.020889249
83	0xbcb9ac1e	-0.02266508
84	0x3d0b09ef	0.03394502
85	0x3d7581e8	0.05993834
86	0x3d937a48	0.07201058
87	0xbc38a51e	-0.011269836
88	0xbd44fe3f	-0.04809403
89	0xbd7b7035	-0.061386306
90	0x3cad9b39	0.02119218
91	0xbc98aff1	-0.018638583
92	0x3980435c	0.0002446425
93	0x3c9e29e0	0.019307077
94	0x3b842386	0.004032555
95	0x3d2ee6e1	0.042700652
96	0xbd003992	-0.031304903
97	0x3c9d2352	0.019181881
98	0xbc659492	-0.014012473
99	0x3d6adb88	0.057338268
100	0x3bea5e55	0.0071523585
101	0x3d2d2468	0.042271048
102	0xbd18ab53	-0.037272763
103	0x3d2bc281	0.04193354
104	0xbd088b2d	-0.033335853
105	0x3cfb78d6	0.030697268
106	0xbd47e656	-0.04880365
107	0xbd99acf2	-0.0750369
108	0xbcb728c1	-0.0223583
109	0xbc7ad5ef	-0.015309795
110	0xbd196fcb	-0.03746013
111	0xbcdc39ab	-0.026882967
112	0xbc744bf1	-0.014910684
113	0xbc9f2693	-0.019427573
114	0xbc620ccd	-0.013796997
115	0x3d61e37f	0.055148598
116	0xbd50c46c	-0.050968572
117	0x3c97bbcf	0.018522171
118	0xbd087abd	-0.033320177
119	0xbd21b8d0	-0.03948289
120	0xbc2a983a	-0.01041227
121	0xbd46f3fb	-0.04857252
122	0x3cb4fa1f	0.022091923
123	0x3d97902e	0.07400547
124	0xbd7967f5	-0.060890157
125	0x3d77928e	0.0604425
126	0xbd25fc55	-0.040523846
127	0xbaf6fc68	-0.0018843533
128	0xbd80fa34	-0.062977225
129	0x3d16aafe	0.036784165
130	0xbd55aad9	-0.052164886
131	0xbce7e9e5	-0.028309772
132	0x3c024ef6	0.007953396
133	0x3cfcdf9d	0.030868346
134	0x3d465823	0.048423897
135	0xbd631bcc	-0.05544643
136	0x3d380e4e	0.044935517
137	0x3d110a6f	0.03541034
138	0x3c261416	0.010136625
139	0x3d0e1191	0.03468472
140	0x3b200157	0.002441486
141	0xb9154aec	-0.00014237658
142	0x3d3a5cdd	0.045498718
143	0x3d3d60b9	0.04623482
144	0x3d2115b3	0.039327335
145	0xbd247308	-0.040148765
146	0xbcd5501f	-0.026039181
147	0xbd8a199b	-0.06743165
148	0xbd4d45df	-0.050115462
149	0x3cd632cf	0.026147274
150	0x3ca96c0d	0.020681405
151	0x3d1a27ab	0.037635487
152	0x3d36ef7a	0.044661976
153	0xbd7ed74f	-0.062217053
154	0x3bc058ea	0.0058699744
155	0xbd22d8b4	-0.039757445
156	0x3ceb1601	0.028697016
157	0x3a944159	0.0011310979
158	0x3d4032cb	0.04692344
159	0x3ccd0225	0.025025437
160	0xbb84ace7	-0.004048932
161	0x3cffdfd4	0.03123466
162	0x3d5e6bfb	0.054302197
163	0x3c8b7ca5	0.017027209
164	0x3bb2932d	0.0054496736
165	0x3bff9b7a	0.0078005167
166	0xbb34c120	-0.0027580932
167	0x3c9c75e9	0.019099193
168	0xbc935f61	-0.017989816
169	0x3d6c5f13	0.057707857
170	0x3be3758f	0.0069415043
171	0x3d7c970a	0.06166748
172	0xbc6ebaa3	-0.014570865
173	0x3d108fdc	0.035293445
174	0xbc051967	-0.008123732
175	0xbccae462	-0.024767105
176	0xbd0e70b8	-0.034775466
177	0x3cc734b3	0.024317121
178	0xbcb49a38	-0.022046193
179	0x3c828bae	0.015935745
180	0xbd2d70fe	-0.042344086
181	0x3741c959	1.1550576e-05
182	0x3d64cee8	0.055861384
183	0xbd5132dc	-0.051073894
184	0xbd32474e	-0.043525033
185	0x3c0fc709	0.008775481
186	0xbcdd77bd	-0.027034635
187	0x3d220200	0.03955269
188	0xbb6089d0	-0.003426183
189	0x3c5d7bbb	0.013518269
190	0x3d449704	0.047995582
191	0xbc5c461f	-0.013444453
192	0x3d673b63	0.05645312
193	0x3d39a8e1	0.04532707
194	0xbcc84049	-0.024444716
195	0x3d18d32a	0.037310757
196	0x3cea218d	0.028580451
197	0xbc5a32d9	-0.013317787
198	0xbbe80720	-0.0070809275
199	0xbd4e3c86	-0.05035069
200	0x3c2e6d3a	0.010646159
201	0xbcc7aea4	-0.024375267
202	0x3d42688d	0.04746299
203	0xbc847692	-0.01616982
204	0xbc53a9cb	-0.0129189
205	0xbd27ca6a	-0.04096452
206	0x3bd63fa6	0.006538349
207	0xbd207b7b	-0.03918026
208	0xbd6387d4	-0.055549458
209	0xbd4adc80	-0.04952669
210	0x3c43e26d	0.01195584
211	0x3d12e91e	0.03586685
212	0x3d09e180	0.03366232
213	0x3cf65c03	0.030073171
214	0x3cd261c3	0.025681382
215	0x3b03bdfa	0.0020102249
216	0xbcf552d7	-0.029946728
217	0xbcdf536d	-0.02726146
218	0xbd26e42a	-0.040744938
219	0xbd291083	-0.041275512
220	0x3cf1215e	0.029434856
221	0x3ce673e7	0.028131438
222	0x3c5a3d7a	0.013320321
223	0xbcbaee41	-0.022818686
224	0x3d38b1d0	0.04509145
225	0xbd464d5c	-0.04841362
226	0xbc6af60b	-0.014340888
227	0x3d2c3790	0.042045176
228	0x3d08b3a0	0.03337443
229	0x3d12ebc6	0.035869382
230	0xbd5d02cf	-0.053957757
231	0xbd6af869	-0.05736581
232	0x3d33e1a1	0.04391635
233	0x3d508482	0.05090762
234	0xbc0c209d	-0.0085526975
235	0xbcbe7dd0	-0.023253351
236	0x3d56b2ea	0.05241672
237	0x3d1a196e	0.037621908
238	0x3ce20730	0.027591318
239	0xbcafb4fd	-0.021448607
240	0xbd3e83a8	-0.046512276
241	0xbb118608	-0.0022205133
242	0xbd72b8ae	-0.059258156
243	0xbc174ff0	-0.009235367
244	0xba98aaf1	-0.0011647624
245	0xbd2a4d3e	-0.04157757
246	0x3d3f319b	0.046678167
247	0x3d407cb2	0.04699392
248	0x3cbf2a84	0.023335703
249	0x3d32d234	0.043657497
250	0xbc40ffe2	-0.011779757
251	0xbcf3fa26	-0.029782366
252	0xbc0b0f33	-0.0084875105
253	0x3d66bc55	0.05633195
254	0xbc9f0fb4	-0.019416668
255	0x3d6641ef	0.056215223

B3 f4 [128]
0	0xbadf2a41	-0.0017026142
1	0x3c864650	0.01639095
2	0x3cd9d304	0.026589878
3	0xba3c5777	-0.0007184664
4	0x3b7c2edc	0.0038480079
5	0xbb127899	-0.0022349714
6	0x3baf63ec	0.005352488
7	0xbaa3b742	-0.0012490528
8	0xbc36ebe7	-0.011164642
9	0x3bc4e17c	0.006008325
10	0x3c34589a	0.011007452
11	0x3c9800b0	0.018555015
12	0xbbbefc5a	-0.0058284225
13	0xbb0fc011	-0.002193455
14	0x3c4dfcbc	0.012572464
15	0xbbc27afc	-0.005935071
16	0xbb3804e7	-0.0028079094
17	0xba63b464	-0.0008686243
18	0x3c79e3ba	0.015252048
19	0x3bd24849	0.0064173085
20	0xbab588a0	-0.0013849922
21	0xbc149ad1	-0.009070114
22	0x3c35f4ff	0.011105775
23	0xbbe7b615	-0.0070712664
24	0x3c4eea06	0.012629038
25	0x3bacc184	0.0052720923
26	0x3bdec2dc	0.0067981314
27	0xbb49f27c	-0.0030814698
28	0x3adf08d9	0.0017016187
29	0xbc402743	-0.011728111
30	0x3c2ba5d9	0.010476553
31	0x3bd51984	0.006503286
32	0x3c148256	0.009064278
33	0x3c200b67	0.0097683435
34	0x3b8565dc	0.0040709805
35	0xbbc650b3	-0.0060521006
36	0x3a1af112	0.0005910556
37	0xbb98a320	-0.004658118
38	0xbb049986	-0.0020233109
39	0xbc1547f3	-0.009111392
40	0xbc688288	-0.014191277
41	0x3b22c70e	0.0024837884
42	0xbc2c0618	-0.0104995
43	0x3b339b55	0.0027405818
44	0xbbe66139	-0.007030633
45	0xbc316e63	-0.010829541
46	0xbaeafe3d	-0.0017928552
47	0x3c036901	0.00802064
48	0x3abac32a	0.0014248837
49	0xb949b12f	-0.0001923486
50	0xbc63c35e	-0.01390156
51	0x3b90819f	0.0044099833
52	0x3bf9f5e0	0.0076281875
53	0xbbf44b28	-0.0074552484
54	0x3ba00e3b	0.004884509
55	0xbaf6fe62	-0.0018844123
56	0x3c41b821	0.011823685
57	0xbbcf9036	-0.00633433
58	0x3bee91f3	0.007280582
59	0x3c986ed8	0.018607542
60	0x3b25d9e2	0.002530687
61	0xbbc33682	-0.0059574256
62	0x3b5b6dbd	0.0033482157
63	0x3c657489	0.014004835
64	0x3b138494	0.0022509443
65	0x3c878272	0.016541693
66	0xbbd4ebf6	-0.0064978553
67	0xbb054fc7	-0.002034174
68	0x3aac2244	0.001313277
69	0x3ca71404	0.020395286
70	0x3a7846b6	0.0009470986
71	0x3a9675b6	0.0011479172
72	0xbc430402	-0.011902811
73	0xbac99cee	-0.0015381852
74	0x3bb23c16	0.0054392917
75	0x3b7fe13f	0.003904417
76	0xbc1f5b34	-0.009726334
77	0x3c6f46d8	0.014604293
78	0x3c1ab7db	0.009443249
79	0xbb7657bf	-0.0037588922
80	0xbb9e1df3	-0.0048253476
81	0x3ad28830	0.0016062316
82	0xbba0d147	-0.0049077603
83	0x3c87f2dd	0.016595298
84	0x3c0f9850	0.0087643415
85	0xba615c26	-0.00085968
86	0x3bb8ff58	0.0056456737
87	0x3b94696a	0.004529168
88	0xbb87cb25	-0.0041440898
89	0xbb17ca8d	-0.00231615
90	0xbb44c102	-0.0030022268
91	0x3c670b2a	0.014101783
92	0xbb560176	-0.003265468
93	0xb9a7b231	-0.00031985485
94	0xbb1ca144	-0.0023899833
95	0x3b139c75	0.0022523676
96	0xb9f6321c	-0.0004695811
97	0x3b91d4e0	0.0044504255
98	0x3c06e022	0.008232148
99	0x3c1bce2d	0.009509605
100	0x3c988aa8	0.018620804
101	0x3aafe2e8	0.0013419064
102	0x3c0e3365	0.008679246
103	0x3a702a9e	0.0009161624
104	0xb8d77d44	-0.000102753314
105	0x3c1cd31d	0.009571818
106	0x3cb51c20	0.022108138
107	0x3bc96660	0.0061462373
108	0xbc053178	-0.00812947
109	0x3be6a436	0.0070386184
110	0x3b316e6d	0.0027073876
111	0xbc4794e3	-0.012181493
112	0xbbec4fb7	-0.007211651
113	0xbb832596	-0.0040022833
114	0xbb815753	-0.0039471774
115	0x3cc61087	0.024177803
116	0x3cae74ac	0.021295868
117	0x3b335762	0.0027365317
118	0x3c2556ee	0.010091526
119	0x3ac1a20e	0.0014773028
120	0x3c041133	0.008060741
121	0xbc0839e1	-0.008314581
122	0x3be6edc4	0.007047387
123	0x3c8fddf1	0.017561885
124	0x3b953cd9	0.0045543727
125	0xba854aba	-0.0010169365
126	0x3c05e4e9	0.008172252
127	0x3c07ad21	0.008281023

W4 f4 [128, 10]
0	0x3d7e059b	0.062017065
1	0xbd2bff3b	-0.041991454
2	0xbe48d860	-0.1961379
3	0x3db0e931	0.08638228
4	0x3ddd8ccd	0.10817871
5	0x3df23f50	0.11828482
6	0x3d8898ae	0.06669746
7	0x3d9d733d	0.076879956
8	0x3dbfee2d	0.093716
9	0x3e2f071a	0.17092553
10	0x3d1c186f	0.03810924
11	0x3e2dfe11	0.1699145
12	0x3dcb1143	0.09915402
13	0x3d3b6413	0.045749735
14	0xbe0c98db	-0.13730185
15	0xbe7746f9	-0.24148168
16	0xbd87a6d5	-0.066236176
17	0xbe53df9b	-0.20690767
18	0xbd2b57af	-0.04183167
19	0xbe51666f	-0.20449232
20	0xbe006fa9	-0.12542595
21	0x3e1f1e83	0.15538983
22	0x3d167a0b	0.036737483
23	0x3ca45ecf	0.02006474
24	0x3de73252	0.11288895
25	0xbe250fbd	-0.16119285
26	0xbd0237d9	-0.03179154
27	0xbbf25096	-0.0073948605
28	0x3d69d56d	0.057088304
29	0x3e202b32	0.15641478
30	0x3e3e181b	0.18563883
31	0x3e1d8d3a	0.15385905
32	0x3d8c4915	0.06849877
33	0xbe620fe5	-0.22076376
34	0xbdb82f66	-0.089934155
35	0xbaaf4b46	-0.0013373874
36	0xbe38dec5	-0.1805373
37	0x3dbff959	0.09373731
38	0xbe6568fe	-0.22403333
39	0x3d7ec094	0.062195376
40	0x3e1b1d81	0.15147974
41	0xbe3fe5a9	-0.18739952
42	0xbd9fcfc9	-0.07803304
43	0xbe7e9cdc	-0.24864525
44	0x3e11be4f	0.14232753
45	0xbdcc202a	-0.09967072
46	0xbd55240f	-0.05203634
47	0x3de8ae87	0.113614134
48	0x3d9ae65d	0.075634696
49	0xbde01574	-0.10941592
50	0x3dd03b7f	0.10167598
51	0x3e1ac8d2	0.1511567
52	0xbe2ea0ad	-0.1705348
53	0xbd3ff87e	-0.04686784
54	0xbd3bc009	-0.045837436
55	0x3e2e082c	0.16995305
56	0xbe30824d	-0.17237206
57	0x3e3c7561	0.18404151
58	0xbdba5d80	-0.09099865
59	0xbd20e98b	-0.039285224
60	0xbdc61af8	-0.09673113
61	0xbd4b3f03	-0.04962064
62	0xbe4f03bd	-0.2021627
63	0xbd9a5ef7	-0.07537644
64	0x3e54b578	0.2077235
65	0xbc62c4d6	-0.013840875
66	0x3de25bd2	0.110526696
67	0xbe5a0c70	-0.21293807
68	0x3e011029	0.12603821
69	0x3d6d2ba3	0.057902943
70	0x3e011664	0.12606198
71	0xbe3e85db	-0.1860575
72	0xbd8f2563	-0.06989553
73	0xbca50576	-0.020144206
74	0xbde7167b	-0.11283585
75	0x3e0a21fb	0.13489525
76	0xbdfda209	-0.123844214
77	0xbca06c6c	-0.01958295
78	0x3dfc7df1	0.12328709
79	0x3cc37943	0.023861533
80	0x3e0e0e39	0.13872613
81	0xbe62bea5	-0.22143038
82	0x3e5324ac	0.20619458
83	0xbe1fac37	-0.15593038
84	0x3d007745	0.031363744
85	0x3d8fe40d	0.07025919
86	0x3cfff569	0.03124495
87	0x3b65ab2f	0.003504466
88	0x3e5a6d1a	0.21330681
89	0xbdb885da	-0.09009905
90	0xbe167d5d	-0.1469626
91	0x3de56f22	0.112028375
92	0x3e2e8165	0.17041548
93	0xbdf543b6	-0.119758055
94	0xbd926cd4	-0.071496636
95	0x3c9d6702	0.019214157
96	0xbdd741c2	-0.10510589
97	0x3e1a3008	0.15057385
98	0xbe1756b7	-0.14779173
99	0xbe06d55f	-0.13167332
100	0xbde0cc28	-0.1097644
101	0x3e48e803	0.19619755
102	0xbe0b7420	-0.13618517
103	0x3e0bcd9d	0.13652654
104	0xbe4d837e	-0.20069692
105	0x3df44381	0.11926938
106	0x3dfd1f53	0.1235949
107	0xbe63b843	-0.22238259
108	0x3db105f1	0.08643711
109	0xbdbab8e9	-0.091173
110	0xbe612a7b	-0.21988861
111	0x3de64396	0.1124336
112	0xbda3b859	-0.07994146
113	0xbd9395fe	-0.07206343
114	0x3d62b900	0.05535221
115	0xbe61ae0b	-0.22039048
116	0xbe5b5ffb	-0.21423332
117	0xbd9f2e27	-0.07772475
118	0x3e332683	0.1749516
119	0x3e3712c4	0.17878252
120	0xbc41c116	-0.01182582
121	0xbe7bde21	-0.24596454
122	0xbdce7a35	-0.10081903
123	0x3e1875ba	0.14888659
124	0xbe73c043	-0.23803811
125	0x3da8b893	0.0823833
126	0x3d1376b9	0.036001895
127	0x3e06f1c0	0.13178158
128	0xbcb60795	-0.022220412
129	0x3da30e9e	0.079617724
130	0x3d203396	0.039111696
131	0xbcae8b13	-0.02130655
132	0xbe5006eb	-0.20315139
133	0x3e4f8e5a	0.20269147
134	0x3c6f14fe	0.014592407
135	0xbe4cbad2	-0.19993141
136	0xbdb05b00	-0.08611107
137	0x3e18da42	0.14927009
138	0x3d687489	0.05675176
139	0x3e5828b9	0.21109284
140	0xbe3673c8	-0.17817605
141	0x3e0d0ff8	0.13775623
142	0x3e1f708d	0.15570278
143	0xbe2e54cc	-0.17024535
144	0xbe041a23	-0.12900595
145	0xbe7d7998	-0.24753416
146	0xbe657b98	-0.22410429
147	0x3e0e6bc5	0.13908298
148	0xbdd7dd68	-0.10540277
149	0x3dbf3796	0.09336774
150	0xbbf6853e	-0.007523208
151	0xbdc6cab8	-0.09706634
152	0x3e6a2d18	0.22868764
153	0xbbb4ee8a	-0.0055216
154	0xbe307f48	-0.17236054
155	0xbe0f666b	-0.14003913
156	0x3dfd0154	0.12353769
157	0x3e3d96da	0.18514577
158	0x3d8320e6	0.06402759
159	0xbd3f7881	-0.04674578
160	0xbe4ff330	-0.20307612
161	0xbe34b129	-0.17645706
162	0x3b256185	0.0025235128
163	0x3dc4eec5	0.09615854
164	0xbe83e597	-0.257611
165	0xbdc6bd15	-0.09704033
166	0xbe7b2bb6	-0.24528393
167	0x3d4b6d3c	0.04966472
168	0xbe51ff1d	-0.20507474
169	0xbe0d4b20	-0.13798189
170	0x3cb8cadf	0.022557674
171	0xbe80b283	-0.25136194
172	0xbdb28f4f	-0.0871874
173	0xbe0457f4	-0.12924176
174	0x3ca1587f	0.019695519
175	0x3df02a46	0.11726813
176	0x3bccc8e6	0.006249535
177	0x3e2e07ca	0.16995159
178	0x3e0ccc7b	0.13749878
179	0xbdebe7c9	-0.11518819
180	0xbdd3a253	-0.10333695
181	0x3d8e6fa8	0.069548905
182	0xbe38cce2	-0.18046907
183	0xbcecbd4d	-0.02889886
184	0xbd9ddad7	-0.07707756
185	0xbe466447	-0.1937419
186	0x3e1255ce	0.14290544
187	0xbe6d283b	-0.23159878
188	0xbe36b3e6	-0.17842063
189	0x3d04e5f1	0.03244585
190	0x3d65e8d3	0.05613024
191	0xbe2d3a32	-0.16916731
192	0xbd054f33	-0.032546233
193	0xbe067c2a	-0.13133302
194	0x3dc7758c	0.09739217
195	0x3e1f737c	0.15571398
196	0x3e2b4640	0.16726017
197	0x3dff1f59	0.12457151
198	0x3d1407c7	0.03614023
199	0x3e2b1685	0.1670781
200	0xbdd44804	-0.103652984
201	0xbd7fae49	-0.06242207
202	0x3e4ff71d	0.2030911
203	0xbd834094	-0.06408802
204	0x3e2de217	0.16980778
205	0x3dfb643f	0.1227498
206	0xbe62867b	-0.22121613
207	0xbe62f2c6	-0.22162923
208	0x3db67772	0.08909501
209	0x3e3bffa5	0.1835924
210	0xbe077c51	-0.13231017
211	0x3d75a340	0.05997014
212	0xbe04ddb9	-0.12975205
213	0x3db4ee6c	0.08834538
214	0x3e323bff	0.17405699
215	0xbd4aa6c6	-0.049475454
216	0x3e38c9d5	0.18045743
217	0x3d89b100	0.06723213
218	0x3e50a59b	0.20375673
219	0x3da31ec3	0.07964852
220	0xbd84007a	-0.064454034
221	0x3d7bfaf2	0.061518617
222	0xbe1fd7da	-0.15609685
223	0xbdfc0f86	-0.12307648
224	0xbdc23d24	-0.09484318
225	0x3d91a96d	0.071123935
226	0xbe44cb0f	-0.19218086
227	0xbe28858f	-0.16457199
228	0x3e0e5371	0.13899018
229	0x3d6d6a69	0.05796281
230	0x3e07562b	0.13216464
231	0xbd9aad5c	-0.07552597
232	0x3e3e8633	0.1860588
233	0xbe34b5a6	-0.17647418
234	0x3e2d7642	0.16939643
235	0x3d55e4c1	0.05222011
236	0x3cb44645	0.022006163
237	0xbd197bba	-0.03747151
238	0x3c3d4176	0.011551252
239	0x3df50070	0.11962974
240	0x3d8c2f87	0.068450026
241	0x3dc38dc4	0.09548524
242	0xbdd91011	-0.105987675
243	0xbe59d1f3	-0.21271496
244	0x3e730140	0.23730946
245	0xbd3bef9d	-0.04588281
246	0x3db322c3	0.08746865
247	0x3d5414f0	0.05177778
248	0xbd8801b1	-0.066409476
249	0x3e174652	0.14772919
250	0xbdf41ae4	-0.119191915
251	0x3bd44eb3	0.0064791082
252	0xbde2a33e	-0.11066292
253	0xbe708fdc	-0.23492378
254	0xbe2204cd	-0.15822144
255	0x3d56744f	0.052357014

B4 f4 [10]
0	0xbc0422db	-0.008064951
1	0x3c7df4a7	0.015500224
2	0xbc68bc7f	-0.014205097
3	0xbb3405b6	-0.0027469224
4	0x3c389132	0.011265086
5	0xbcabdabe	-0.020978328
6	0xbc69eca4	-0.014277611
7	0x3b1a4904	0.0023542056
8	0x3cd09b56	0.025464695
9	0x3c31eee7	0.010860181
